…
backend.py:235: UserWarning: File-like object support in sox_io backend is deprecated, and will be removed in v2.1. See https://github.com/pytorch/audio/issues/2950 for the detail.Please migrate to the new dispatcher, or use soundfile backend.
  warnings.warn(_deprecation_message)
===============================================================================================
Layer (type:depth-idx)                        Output Shape              Param #
===============================================================================================
Sequential                                    [32, 128, 150]            --
├─SConv1d: 1-1                                [32, 32, 48000]           --
│    └─NormConv1d: 2-1                        [32, 32, 48000]           --
│    │    └─Conv1d: 3-1                       [32, 32, 48000]           480
│    │    └─GroupNorm: 3-2                    [32, 32, 48000]           64
├─SEANetResnetBlock: 1-2                      [32, 32, 48000]           --
│    └─SConv1d: 2-2                           [32, 32, 48000]           --
│    │    └─NormConv1d: 3-3                   [32, 32, 48000]           1,120
│    └─Sequential: 2-3                        [32, 32, 48000]           --
│    │    └─ELU: 3-4                          [32, 32, 48000]           --
│    │    └─SConv1d: 3-5                      [32, 16, 48000]           1,584
│    │    └─ELU: 3-6                          [32, 16, 48000]           --
│    │    └─SConv1d: 3-7                      [32, 32, 48000]           608
├─ELU: 1-3                                    [32, 32, 48000]           --
├─SConv1d: 1-4                                [32, 64, 24000]           --
│    └─NormConv1d: 2-4                        [32, 64, 24000]           --
│    │    └─Conv1d: 3-8                       [32, 64, 24000]           8,256
│    │    └─GroupNorm: 3-9                    [32, 64, 24000]           128
├─SEANetResnetBlock: 1-5                      [32, 64, 24000]           --
│    └─SConv1d: 2-5                           [32, 64, 24000]           --
│    │    └─NormConv1d: 3-10                  [32, 64, 24000]           4,288
│    └─Sequential: 2-6                        [32, 64, 24000]           --
│    │    └─ELU: 3-11                         [32, 64, 24000]           --
│    │    └─SConv1d: 3-12                     [32, 32, 24000]           6,240
│    │    └─ELU: 3-13                         [32, 32, 24000]           --
│    │    └─SConv1d: 3-14                     [32, 64, 24000]           2,240
├─ELU: 1-6                                    [32, 64, 24000]           --
├─SConv1d: 1-7                                [32, 128, 6000]           --
│    └─NormConv1d: 2-7                        [32, 128, 6000]           --
│    │    └─Conv1d: 3-15                      [32, 128, 6000]           65,664
│    │    └─GroupNorm: 3-16                   [32, 128, 6000]           256
├─SEANetResnetBlock: 1-8                      [32, 128, 6000]           --
│    └─SConv1d: 2-8                           [32, 128, 6000]           --
│    │    └─NormConv1d: 3-17                  [32, 128, 6000]           16,768
│    └─Sequential: 2-9                        [32, 128, 6000]           --
│    │    └─ELU: 3-18                         [32, 128, 6000]           --
│    │    └─SConv1d: 3-19                     [32, 64, 6000]            24,768
│    │    └─ELU: 3-20                         [32, 64, 6000]            --
│    │    └─SConv1d: 3-21                     [32, 128, 6000]           8,576
├─ELU: 1-9                                    [32, 128, 6000]           --
├─SConv1d: 1-10                               [32, 256, 1200]           --
│    └─NormConv1d: 2-10                       [32, 256, 1200]           --
│    │    └─Conv1d: 3-22                      [32, 256, 1200]           327,936
│    │    └─GroupNorm: 3-23                   [32, 256, 1200]           512
├─SEANetResnetBlock: 1-11                     [32, 256, 1200]           --
│    └─SConv1d: 2-11                          [32, 256, 1200]           --
│    │    └─NormConv1d: 3-24                  [32, 256, 1200]           66,304
│    └─Sequential: 2-12                       [32, 256, 1200]           --
│    │    └─ELU: 3-25                         [32, 256, 1200]           --
│    │    └─SConv1d: 3-26                     [32, 128, 1200]           98,688
│    │    └─ELU: 3-27                         [32, 128, 1200]           --
│    │    └─SConv1d: 3-28                     [32, 256, 1200]           33,536
├─ELU: 1-12                                   [32, 256, 1200]           --
├─SConv1d: 1-13                               [32, 512, 150]            --
│    └─NormConv1d: 2-13                       [32, 512, 150]            --
│    │    └─Conv1d: 3-29                      [32, 512, 150]            2,097,664
│    │    └─GroupNorm: 3-30                   [32, 512, 150]            1,024
├─SLSTM: 1-14                                 [32, 512, 150]            --
│    └─LSTM: 2-14                             [150, 32, 512]            4,202,496
├─ELU: 1-15                                   [32, 512, 150]            --
├─SConv1d: 1-16                               [32, 128, 150]            --
│    └─NormConv1d: 2-15                       [32, 128, 150]            --
│    │    └─Conv1d: 3-31                      [32, 128, 150]            458,880
│    │    └─GroupNorm: 3-32                   [32, 128, 150]            256
===============================================================================================
Total params: 7,428,336
Trainable params: 7,428,336
Non-trainable params: 0
Total mult-adds (G): 96.20
===============================================================================================
Input size (MB): 12.29
Forward/backward pass size (MB): 7500.60
Params size (MB): 29.71
Estimated Total Size (MB): 7542.60
…
